src/DeepQuant/tests/mnist_fc.pth (torch, 440210 bytes, 6 tensors)

fc.1.weight f4 [128, 784]
000000 63 5c 6c 3d a2 b5 1c 3b fd 63 e4 3c fc 46 65 3b
       0.057705294 0.0023911973 0.02787971 0.0034984937
000010 05 a6 61 3d d6 e8 e3 3b 3b 2c 3b 3d b1 b5 2b 3d
       0.05508997 0.0069552464 0.04569648 0.04192132
000020 a5 29 86 bb 51 e5 24 3d 03 89 69 3c ba 70 0d bc
       -0.00409432 0.040257756 0.014253858 -0.008632833
000030 5b 4e 80 bb 68 ff 2e 3d 60 36 bc 3c 47 55 82 3c
       -0.0039155907 0.042724043 0.022975147 0.015909804
000040 ac 03 95 bb 8f 12 72 3c 82 63 68 3c 1a c8 d9 3c
       -0.004547557 0.0147749325 0.014183881 0.026584674
000050 34 56 17 3c 8d 40 1d bc 83 59 3d 3d 5e 85 bd 3a
       0.009236861 -0.00959791 0.046227943 0.0014459302
000060 45 a2 02 3d 23 ba 3d 3d 32 c9 c4 bb 49 af b6 3b
       0.031893034 0.046320092 -0.0060054297 0.005575095
000070 07 25 5d 3d e3 ca f2 3c 3a 07 0d bc 99 f6 56 3d
       0.05399039 0.02963776 -0.00860768 0.052481268
000080 5c ed 01 3d d8 84 b0 3b b3 8a 49 3d 1f b6 d4 3a
       0.031720504 0.00538693 0.04920454 0.0016228593
000090 3f 12 65 3d 91 1c 7f bb 05 bf 0d 3d 3f 5b 16 3d
       0.055925604 -0.003892694 0.034606 0.036708113
0000a0 24 51 6b 3c 7a 93 30 3d 80 e5 4c 3d e8 58 f0 3c
       0.014362607 0.043109395 0.050023556 0.029339269
0000b0 82 45 66 3d 85 59 8f 3c c0 4b 55 3d f1 8e 28 3c
       0.05621863 0.01749874 0.052074194 0.010287986
0000c0 1a fd a4 3b aa c9 45 3c 78 ed 4c 3d 37 cf 39 3d
       0.005035055 0.012072006 0.050031155 0.04536363
0000d0 65 5b 5a 3d e4 bb 89 3c a3 23 db 3b 74 03 ae 3b
       0.053309817 0.016813226 0.006687598 0.0053104702
0000e0 f0 49 1f 3c 96 0c 08 3d 04 b7 fc bb 94 67 6e 3d
       0.009722218 0.033215128 -0.007712247 0.05820425
0000f0 90 60 07 3d d4 93 ed 3c dc e5 17 3d 32 d3 4e 3d
       0.033051074 0.029001154 0.037084445 0.05049438
000100 0c a3 be bb 2e 1e 56 3d 4d 42 a9 3c 60 21 44 bc
       -0.0058177765 0.052274875 0.020661497 -0.011970848
000110 36 f7 25 bb 58 ec 21 3d 71 00 2a ba d7 af 5b 3c
       -0.002532435 0.039532036 -0.0006485051 0.013408623
000120 94 c3 99 bc da 36 e5 3c 87 de 6d 3c ab cc 0f 3d
       -0.018770017 0.027980257 0.014518387 0.035107296
000130 03 50 3d 3c 64 39 a0 bb 4e b4 bf 3c 77 c1 fa 3b
       0.011554721 -0.004889654 0.023401406 0.0076524573
000140 a3 05 6b 3d fd d4 3b 3d 62 2b 46 3b df c4 5d 3d
       0.057378422 0.04585742 0.003023826 0.05414283
000150 25 b5 78 3d 84 a6 d2 3c 45 2b 6a 3d b2 55 8a 3c
       0.060719628 0.025714166 0.05717017 0.016886566
000160 ac ac 60 3d f5 d5 06 39 d8 3e 82 3c a8 a7 a1 3b
       0.054852173 0.00012858941 0.015899107 0.0049333163
000170 77 e7 e5 bb 9a 10 5f bc 82 c7 e1 bc bf 44 30 3c
       -0.007016118 -0.013614798 -0.027560953 0.010758578
000180 9b c6 30 bd d9 f9 bb bd 4b 86 2c be f2 fd c3 bd
       -0.043158155 -0.09178514 -0.16848104 -0.095699206
000190 45 ec 01 be 23 3e a0 bd 88 a9 90 bd 43 db 50 3b
       -0.12687786 -0.07824352 -0.070635855 0.0031868971
0001a0 72 04 a1 3c 16 95 b0 3b eb a7 36 3c 96 10 a6 bc
       0.01965544 0.005388866 0.011148433 -0.02027158
0001b0 b7 d3 b4 3c 04 f2 3a bc 79 f4 5b 3d 3f f4 3f 3d
       0.02207361 -0.01141024 0.053699944 0.04686379
0001c0 50 c9 d4 3c e3 81 27 3d c3 78 10 3d 8b a1 01 3d
       0.0259749 0.040895354 0.035271417 0.0316482
0001d0 c3 91 97 3c 49 93 ba bb 8d 88 a1 3c 89 60 e8 ba
       0.018502122 -0.0056938273 0.019718433 -0.0017728965
0001e0 2e c3 d3 3c 1c 70 6d bb fa 9d 79 bd 80 48 9f bd
       0.025849905 -0.0036230152 -0.060941674 -0.077775
0001f0 43 b1 db bd f3 b9 2f be de 6e 5d be d0 ef 3c be
       -0.10727169 -0.17160778 -0.21624324 -0.18450856
000200 70 8b 38 be e5 eb 17 be 05 7d 0e be 58 91 35 3d
       -0.18021941 -0.1483608 -0.13914879 0.044328064
000210 44 43 26 3d 4a 11 c2 3c 71 48 f1 bb c1 ea 96 3c
       0.040591493 0.023689885 -0.007363372 0.018422486
000220 c4 ad 2c bb 45 42 45 bb 40 b3 20 bc 27 6d 6b bc
       -0.002634869 -0.0030099314 -0.0098083615 -0.014369286
000230 41 94 74 3d 6b 69 64 3d e4 50 e2 3c 4d 50 09 3d
       0.0597117 0.055764597 0.027626462 0.033523846
000240 ff 1a ac 3c 1b 72 ba 3c 4c 5d e4 ba e2 7e 3f bc
       0.021008966 0.022759488 -0.0017422824 -0.011687966
000250 56 0d 1b 3c fc 6e 90 bd 67 1b 1e be 32 9f 16 be
       0.009463629 -0.070524186 -0.1544014 -0.14709166
000260 67 f2 6a be 3f 65 6a be f9 20 5b be 2a 30 89 be
       -0.22944032 -0.22890185 -0.21399297 -0.2679456
000270 48 09 72 be 80 41 86 be 76 14 86 be 9a 26 61 be
       -0.23636353 -0.26221848 -0.26187485 -0.21987382
000280 12 97 d0 bd 03 29 2c bd 03 bc 41 bd 41 77 fb bc
       -0.101850644 -0.0420313 -0.047298443 -0.030696513
000290 ea 8b f4 bc 84 3b b2 bd 3e 56 e9 3c 2f 22 87 3c
       -0.029851872 -0.08702758 0.028483506 0.016495792
0002a0 2c 02 10 3c 6f 62 79 3c 0c 92 19 3c 03 1e 60 3d
       0.00878958 0.015221222 0.009373199 0.05471612
0002b0 f3 4b 45 3d ce 69 8e 3d 43 d2 09 bc aa 49 ab bd
       0.048168134 0.069537744 -0.008411947 -0.0836366
0002c0 11 2f 08 be 3c fc 5c be ed 6c 4d be d0 35 18 be
       -0.13299204 -0.21580595 -0.20061083 -0.14864278
0002d0 4d 4c cb bd 6f f7 2c be 28 cf d0 bd 80 bd 35 be
       -0.099266626 -0.16891263 -0.10195762 -0.1774807
0002e0 20 40 23 be 48 d5 16 be e7 bf 1f be 26 c3 14 be
       -0.1594243 -0.14729798 -0.15600549 -0.14527568
0002f0 a7 61 87 bd 85 3e 78 bc 2b 3d 07 bd 28 9c 37 bd
       -0.066104226 -0.015151625 -0.03301732 -0.044826657
000300 de 51 ad bd 00 77 4b bd ff b1 0e bb 3a 37 ed 3c
       -0.084628806 -0.049674034 -0.0021773574 0.028956998
000310 d5 8c 3a 3d 39 63 0f bc 34 a1 56 3d ac ac 24 3d
       0.045544464 -0.008751684 0.05239983 0.040203735
000320 f4 a6 62 3d 39 7c 83 3d c4 93 87 bb 78 08 83 3d
       0.055335 0.06420178 -0.004137488 0.063981
000330 c6 5e d5 bd 06 81 cb bd 83 9a 43 be 0f 1b 80 be
       -0.10418467 -0.09936719 -0.1910191 -0.25020644
000340 70 db 57 be 0a 5c 80 be 3a a4 45 be 0a c8 71 be
       -0.21079803 -0.2507022 -0.19300929 -0.23611465
000350 49 51 02 be 89 c0 29 be 43 89 2e be 79 18 68 be
       -0.1272632 -0.16577353 -0.17044549 -0.22665586
000360 b9 ce 23 be 7f 38 09 be 87 45 20 bc e5 94 f6 bb
       -0.15996827 -0.13400458 -0.009782202 -0.007525074
000370 a5 53 ef bd 23 0b 0f be 50 59 0c bd eb b9 e2 3b
       -0.11685876 -0.13969092 -0.034264863 0.006919136
000380 3e 30 64 3d 44 c7 94 3a c4 65 6e 3c 57 15 ba 3d
       0.05571007 0.001135089 0.01455063 0.090861015
000390 dd 3a 85 3d 4d 6e ee 3d d6 a4 00 3e c8 43 c1 3d
       0.06505368 0.11642132 0.1256288 0.09436756
0003a0 4b 21 21 3d d5 45 20 3d 6c c0 ba bd b9 d3 51 be
       0.03933839 0.039129097 -0.09118733 -0.20490922
0003b0 b4 30 25 be ae 96 c3 be ee 68 c4 be 85 c3 93 be
       -0.1613186 -0.38200897 -0.38361305 -0.28860107
0003c0 0e 2d 8d be 57 88 8e bc a2 a5 d1 bb 1e 67 04 be
       -0.27573436 -0.017398996 -0.006397919 -0.12929961
0003d0 7b 83 0e bd 9f 0e 35 bd 31 27 97 3c f1 b8 2f 3d
       -0.03479336 -0.044203397 0.018451305 0.042900983
0003e0 0c 14 eb bc c3 a5 52 bd 31 41 ff 3c 3e 57 14 3d
       -0.028696083 -0.051427614 0.031159015 0.036216013
0003f0 e3 84 3e 3c ac 15 1e 3d 78 fa 08 3d 29 07 9a 3d
       0.011628362 0.038594887 0.03344199 0.07520897

fc.1.bias f4 [128]
000000 d5 3b ed bc 36 af af 3c 58 ca 66 b8 a0 0c f7 bc
       -0.028959194 0.021445852 -5.502472e-05 -0.030157387
000010 da c3 f8 bc 40 f9 e3 bc ad 90 ef 3c 86 4a 7a bb
       -0.030366827 -0.027828813 0.029243791 -0.0038191392
000020 54 af bd 3b 73 08 bd 3c c6 55 08 bd 0b 4c 1c bc
       0.005788723 0.023075318 -0.033284925 -0.009539614
000030 1c ff bf 38 87 40 22 bd 46 a2 26 bd 8f 97 e9 3c
       9.1551075e-05 -0.03961232 -0.0406821 0.028514652
000040 5c ba 45 ba c3 b2 6a bc 50 43 d4 bc 27 75 a8 3b
       -0.00075427233 -0.014324847 -0.025911003 0.005140919
000050 99 7b 8b bc 5a fb bf 3b 42 53 cd 3c 33 df a1 bc
       -0.01702671 0.005858821 0.025064114 -0.01975975
000060 00 4e 55 bc 10 cc 96 3c 80 db 37 bb 53 bc b3 bc
       -0.013019085 0.018407851 -0.0028054416 -0.021940386
000070 30 2a 1f 3c b1 17 8e bc 7f b1 1d 3b 23 e8 a6 bc
       0.009714648 -0.017345281 0.0024062095 -0.020374363
000080 9e a3 30 3c 1b ad 92 3c 72 f0 86 bb e7 1c 1f bd
       0.010781197 0.017904809 -0.004118019 -0.038845923
000090 30 0d 57 3c a2 f4 dc bb 0d f7 fa 3b cf b7 2c bd
       0.013125703 -0.0067430297 0.0076588453 -0.04216748
0000a0 f5 d4 88 bc ac 89 1f bd ed 6a de 3c e2 00 bc 3c
       -0.016703108 -0.038949654 0.027150596 0.02294964
0000b0 e2 23 7c bd 1b 09 88 bc 60 b0 5c 3c 2d 54 7a ba
       -0.061557658 -0.016605904 0.013469785 -0.00095492863
0000c0 22 0d ed bc f3 1b b6 bc 3d dd 7f 3b 42 75 20 3a
       -0.028936926 -0.022230124 0.003904178 0.00061209884
0000d0 b0 17 cb bc a6 87 82 bd 2c 1c 14 bd 5a 0e 04 bd
       -0.024791569 -0.06373529 -0.03615968 -0.03224025
0000e0 ba 6b 0a bc 24 aa fe bc f6 08 24 3d 0e 3a d2 3b
       -0.008448536 -0.031086989 0.04004761 0.006415612
0000f0 59 9d c5 3c 35 19 dd bc d0 f1 3b 3a 9c ac 8f bc
       0.02412288 -0.026989559 0.0007169517 -0.017538361
000100 18 d2 a6 bc 23 e5 a3 3b ee 27 ca 3b 56 28 fe 3c
       -0.020363852 0.0050016805 0.006169311 0.031025093
000110 e1 f5 f0 bb 81 d4 84 bc ee 38 3a 3c 31 25 dd 3c
       -0.00735353 -0.016214611 0.011366112 0.026995273
000120 bb bb 0b bd c0 ab ab ba 9a 5e 52 3c 74 1e 94 bc
       -0.03411458 -0.001309745 0.012839938 -0.018080927
000130 59 46 a9 3c fa cc 01 3d 7f a9 a7 3c 82 87 f4 bc
       0.020663427 0.03168962 0.020466564 -0.029849771
000140 14 40 34 3b 00 a1 d2 3c b1 13 14 bc 1e 89 49 3c
       0.0027504014 0.025711536 -0.009037898 0.012300758
000150 4b 23 54 bc 20 25 68 bc 8b be 21 bd 57 87 19 bd
       -0.012947868 -0.014169008 -0.039488357 -0.037482586
000160 88 ac ea 3b fb 90 2b bc 68 e0 d3 bc e6 19 b5 bb
       0.0071616806 -0.010471578 -0.025863841 -0.005526769
000170 79 24 de 3b 38 e2 02 3d c5 9a 5e 3c c9 43 1a 3c
       0.00677925 0.03195402 0.013586705 0.009415575
000180 3f 38 8b bd 33 15 c1 bc 7b fd 9a 3c 4d 76 98 3c
       -0.067978375 -0.023569679 0.018919697 0.018611098
000190 ee 62 bf 3c 8e 85 03 bd 09 bf 6c bc d6 f1 f9 bc
       0.023362603 -0.03210979 -0.014449843 -0.030510824
0001a0 66 40 d9 3b 70 92 09 bd 9a 2a 8e 3c e2 2e 89 ba
       0.0066299913 -0.03358692 0.017354298 -0.0010466243
0001b0 01 b5 b2 3c 7a 1a d5 3c 17 e0 aa bc 47 60 96 bc
       0.021814825 0.026013602 -0.020858807 -0.018356455
0001c0 ec a2 06 3d 0f 97 38 3d 4c 85 ad 3c c7 96 15 bc
       0.03287022 0.045065936 0.021181725 -0.009130186
0001d0 59 1a 16 bc ce 6a bc bc 3e aa 99 3b ed 41 b7 bc
       -0.009161555 -0.023000147 0.004689484 -0.022370303
0001e0 17 80 74 bd c5 06 10 bd af 55 3c bc 24 18 04 3d
       -0.05969247 -0.035162706 -0.011495038 0.032249585
0001f0 ba bd 67 bb 86 8f b8 bc 9f 8d 8c bc 63 e3 0a bd
       -0.0035360889 -0.022529375 -0.017157374 -0.03390826

fc.3.weight f4 [64, 128]
000000 c3 81 17 3e 1a f8 ae 3d 9e c2 72 3b a5 21 c0 3c
       0.14795594 0.08543415 0.003704227 0.023453543
000010 a4 d5 72 bd 89 6e a5 3d 05 62 ee bd 1a ea c6 3d
       -0.059285775 0.080777235 -0.116397895 0.0971262
000020 ca 0a 58 3c a5 b2 0c be 23 04 d2 bb f2 4c f3 3c
       0.013186166 -0.13740022 -0.0064091845 0.029699776
000030 76 16 3b bd f9 f1 a8 3b 58 cb b9 bd 80 80 00 ba
       -0.045675717 0.0051557985 -0.09071988 -0.00049019605
000040 c7 2f 5b 3c ba a3 91 3c ca 81 0a 3c ca 31 51 3d
       0.01337809 0.017778266 0.008453796 0.051072873
000050 54 a0 07 be 2a 02 ef bd 8c b0 0b bc d2 11 f7 bc
       -0.13244754 -0.11670335 -0.008525979 -0.030159865
000060 12 b2 ee bc 30 cf e5 3c fc 36 4f bd 71 61 27 be
       -0.029137645 0.028052896 -0.050589547 -0.16345765
000070 d1 a2 67 bd e1 50 75 3d e2 4c 5a 3d ba 0a ff 3d
       -0.05655176 0.059891585 0.053295977 0.12453218
000080 86 f0 0a 3d 6e fc af bd 6f df 91 3d c4 be e7 3d
       0.033920787 -0.08593069 0.07122695 0.113156825
000090 d5 6e 47 3e 15 13 82 bd fb 46 35 bb 3c 26 5d bb
       0.19475873 -0.06351296 -0.0027660716 -0.0033744713
0000a0 39 c2 5c 3a 65 ca 4b 3d 84 e7 92 3d 74 fd e6 3d
       0.00084212754 0.049753565 0.07173064 0.11278811
0000b0 36 fc 05 3b b8 31 60 3c 23 b1 5a 3d 33 ec 74 3c
       0.002044452 0.013683729 0.053391587 0.014948892
0000c0 38 7b 18 bd c1 02 5e 3d ef fc 38 3c 67 ec 90 3e
       -0.037226886 0.054201845 0.011290773 0.2830536
0000d0 fa 9d 68 3d 24 d7 51 3d 77 51 2b bd 55 c1 a2 bd
       0.056791283 0.051230565 -0.041825738 -0.079470314
0000e0 fd 4f 7a 3e 95 00 48 bc 92 85 b4 bd e7 7e f4 3a
       0.24444576 -0.01220717 -0.08814539 0.0018653543
0000f0 7f b6 0f be e0 67 ec bc 00 5a 31 3d 8c 19 29 bd
       -0.1403446 -0.028858125 0.04329872 -0.04128413
000100 50 32 ce bc 16 ba b1 3d 76 33 ad bd 8d 7d 60 3d
       -0.025170475 0.08678071 -0.08457081 0.054807235
000110 3c 0c 29 3d 6d 9e b5 3d 5f 2a 1f 3e b5 21 a7 3c
       0.041271433 0.08868108 0.15543507 0.020401815
000120 f2 5c 29 3d cb a7 ed bc be 90 14 bd b4 2b e1 bb
       0.041348405 -0.029010674 -0.03627085 -0.006871665
000130 63 65 33 3c 55 6c 01 3d fa d0 22 3e ba e7 53 3c
       0.010949465 0.031597454 0.1590003 0.012933666
000140 22 f9 c3 bd fa 6a b2 3d b4 c0 56 bd 23 10 39 3d
       -0.09569003 0.087118104 -0.05242987 0.045181405
000150 7b 83 77 3d 9c b3 dc 3d d4 95 d0 be ca 47 88 bb
       0.060428124 0.10776445 -0.4073931 -0.0041589485
000160 7a ef fa 3d 28 a2 99 3c 44 6c 75 3d 56 67 56 3d
       0.12252708 0.01875408 0.059917703 0.052344643
000170 12 54 5b bc 70 b5 b0 bd 07 f2 24 bd d7 02 5b 3d
       -0.013386743 -0.086283565 -0.040269878 0.053469505
000180 50 4a 00 3d 57 3f 97 3d de 27 71 bd 77 11 62 be
       0.03132087 0.07385128 -0.05887591 -0.22076975
000190 8a a7 4e 3b cb b9 76 3d cb 94 bc 3d f2 2f 85 3d
       0.0031532967 0.06023578 0.092080675 0.065032855
0001a0 b1 ed 48 3e 8d 54 23 bc f3 11 17 bd da d8 99 3e
       0.19621922 -0.009968889 -0.036882352 0.30048257
0001b0 5a 36 0a 3e 45 d0 13 3e be 23 b3 bd 6b 9b 46 3d
       0.13497296 0.14434917 -0.08747052 0.048488062
0001c0 e8 f6 a9 3c e4 e3 45 3c d1 99 5c be 22 01 ec 3b
       0.020747617 0.012078259 -0.21543051 0.0072022835
0001d0 31 fb 8e 3d 84 f2 9a 3e 7b 1f b7 3d d3 dd 92 bd
       0.06981505 0.3026315 0.08941551 -0.07171216
0001e0 18 fe cc 3e d1 8d 57 be c6 44 09 bc 0f 14 01 be
       0.40037608 -0.21050192 -0.008378213 -0.12605308
0001f0 34 2d 4c bd d3 da 02 3e 95 70 57 3e f3 44 10 3d
       -0.049847797 0.12778787 0.2103904 0.035222005
000200 05 b1 23 be c1 e4 0e 3e 0d cf e0 bd cc a1 b3 3c
       -0.15985496 0.1395445 -0.10976992 0.021927737
000210 b3 ed 0e 3d f8 be ef 3c 6d 5a 13 3d 7a 3b 93 3d
       0.034894656 0.029265866 0.03597491 0.07189079
000220 ef 81 4e 3d df c0 4c bd 3d b0 ff bd 06 be 11 3e
       0.050416883 -0.049988624 -0.12484787 0.14232644
000230 4c 14 01 3d c4 da e2 bc a3 b6 84 3d c8 ad dc 3c
       0.031513497 -0.027692206 0.06480148 0.026938334
000240 c8 0d 42 bd 33 b8 be bd 60 4f b1 3d 66 cc 40 3d
       -0.047376424 -0.09312477 0.08657718 0.04706993
000250 b8 9e ae be 21 29 b9 3d 13 b2 b2 bc c2 ab c1 3c
       -0.34105468 0.09041048 -0.021813428 0.02364147
000260 5f 64 2e 3d 51 01 04 bd 78 3f 92 be 66 a3 c4 3d
       0.04257619 -0.032227818 -0.28564048 0.09601478
000270 05 fe 20 bd b3 36 bb 3b f5 e1 4f bd 6c d7 81 3d
       -0.039304752 0.0057133078 -0.0507526 0.063399166
000280 72 22 73 3c 74 61 49 bd c6 aa 3a 3c 7f 37 0b 3e
       0.014839755 -0.049165204 0.011393255 0.13595389
000290 9f 59 58 bd 7e 86 c6 3c a5 43 d5 3c 22 e4 c2 3c
       -0.052819844 0.024234053 0.026033232 0.023790423
0002a0 7a 02 7c 3d 2e 6f c2 bd a8 0d 8f 3d c2 01 92 be
       0.0615258 -0.09493862 0.069850266 -0.28516966
0002b0 cb bc ed 3d a5 ed b2 bb 11 c3 a1 3d 1d fe a4 3d
       0.11608275 -0.0054604583 0.07898534 0.08056281
0002c0 08 5c 24 bd be 19 9d 3d a5 16 84 3b e8 37 72 bd
       -0.04012683 0.076709256 0.0040310198 -0.059135348
0002d0 04 23 93 3d 7f 84 31 be f2 f9 af 3d 14 83 8e bd
       0.07184413 -0.173357 0.08592595 -0.06958595
0002e0 23 2a 37 3e de be 8a 3e 74 92 f6 bd 6b e4 ba bc
       0.17887168 0.27098745 -0.120396525 -0.022813996
0002f0 16 27 9c bd e7 2f 74 3d 51 f6 c9 3d 24 02 43 3e
       -0.076246426 0.059615996 0.09861434 0.19043785
000300 6b 34 35 bd 74 23 99 bd b5 87 b0 3d 55 d0 59 3d
       -0.044239443 -0.07477465 0.08619634 0.053177197
000310 ba cf a3 bd 1f 45 65 bd 3d ba ea bd bb 8e 98 3b
       -0.07998605 -0.055974122 -0.114613034 0.0046556867
000320 75 a5 5f 3a 83 a1 30 3e f8 88 8b 3d 98 08 27 3d
       0.000853143 0.17249112 0.06813234 0.04077968
000330 9b d8 62 be 35 c3 99 be bf e7 0e be b5 d0 8f 3d
       -0.22152941 -0.30031744 -0.13955592 0.070222296
000340 c9 68 45 bd de 73 4a bc 58 4c db bd 54 86 49 bd
       -0.048195634 -0.012356726 -0.10707921 -0.04920037
000350 ce e1 a3 3d 3a 54 0a be ca 66 89 3d 06 4b a3 3d
       0.08002053 -0.13508692 0.067090586 0.07973294
000360 07 bb f8 3c 22 bf 9e bd bb 5f 46 be a6 cf 9c be
       0.03036262 -0.077512994 -0.19372456 -0.30627173
000370 3e 42 0f 3e a5 e3 13 3e bc 1e 08 be 85 44 b2 bd
       0.13990113 0.14442308 -0.13292974 -0.08704475
000380 c9 11 b7 3c 41 ca 60 bd b0 fa 14 bc b2 1d e5 bd
       0.022347348 -0.054880384 -0.009092972 -0.111873046
000390 57 4b 99 3d 0d 09 80 3b 3b 6e 8b 3d 77 49 d9 ba
       0.07485073 0.003907329 0.06808134 -0.001657768
0003a0 d6 71 0f be c4 db 30 3d 6e 49 ce 3d ec d3 fe bd
       -0.14008269 0.043178335 0.10072599 -0.12442765
0003b0 e0 35 ee bd 8c 19 90 3d 46 d1 c0 bc 1a 17 cc bd
       -0.116313696 0.07036123 -0.02353729 -0.09965344
0003c0 db 65 94 3e d4 0b b4 3d 4f 45 80 bd c8 19 8c 3d
       0.2898396 0.087913185 -0.062632196 0.06840855
0003d0 5d f5 a0 3c 2c 4a 0b bd fc 2b fe bc b5 85 dd ba
       0.019648248 -0.034006283 -0.031026833 -0.001690081
0003e0 55 fa 84 3c e7 54 89 3d de c0 b8 bd 13 6f 0b 3e
       0.016232649 0.06705647 -0.090211615 0.1361659
0003f0 3a d8 a3 3b 7a 4a fb 3d 08 5a 84 bd cd ca ad 3b
       0.0050001414 0.12270065 -0.064624846 0.0053037168

fc.3.bias f4 [64]
000000 7f 62 be bd d8 94 63 3e 94 8b 64 3c 69 cc c1 3d
       -0.092961304 0.22224748 0.013949294 0.09462816
000010 26 ad da 3c aa eb 2d 3e 18 1d ac bc 8b 54 74 bd
       0.026693892 0.1698443 -0.021009967 -0.05965094
000020 99 51 91 3d 48 ea 07 bd 0e d7 1c 3d 0b 57 a9 bd
       0.07095642 -0.033182412 0.03829103 -0.08268555
000030 e3 14 6c 3d cc 2a c7 3d 0e 89 0b 3e ef f8 a2 bc
       0.057637107 0.0972496 0.13626501 -0.019894091
000040 6d 4e e8 bd a8 1e d6 bc b2 6f c4 3a de 75 a3 bd
       -0.113430835 -0.026137665 0.0014986901 -0.07981466
000050 22 a1 a4 3d b8 46 10 3e 4e c1 cc bd 91 63 ba 3d
       0.08038546 0.14089477 -0.099978074 0.09101022
000060 ec 67 28 bb e5 8f d0 bd fa fd b7 bd 6b 7c c0 3d
       -0.0025696708 -0.10183696 -0.08983989 0.09398731
000070 73 7a bb bd 45 ee 42 3d b6 ac 37 3e 8b f9 ed 3c
       -0.09154215 0.047590513 0.17936978 0.029049655
000080 72 ef ac 3d 6c c6 c8 3c 6a 14 e7 3d 16 58 d3 bd
       0.08444108 0.024508677 0.112831905 -0.103195354
000090 c3 e1 5e bd 15 66 a2 bd 15 84 ab 3d ef f9 bc bd
       -0.054414522 -0.07929627 0.08374802 -0.092273585
0000a0 b5 57 23 bd 10 12 a0 bd f9 82 aa 3c f2 fc 02 be
       -0.039878566 -0.07815945 0.020814406 -0.12791803
0000b0 6a 37 6a bd 17 a1 2b 3e c6 ed 8b bd 9b 2c c0 bd
       -0.057181753 0.1676067 -0.06832461 -0.09383508
0000c0 fe d9 28 3c 7a f4 d6 3c 0a 9b c6 3d 2c 66 4d 3c
       0.01030588 0.026239622 0.0969754 0.012536567
0000d0 c8 a2 45 bd 7e ee ad bd 46 db 5b 3d 20 bd 4f be
       -0.048250943 -0.084927544 0.053675912 -0.20286989
0000e0 d4 e4 af bd 70 16 d7 bd 4e 60 f1 3d d0 6d 6a bd
       -0.085885674 -0.105023265 0.11785947 -0.05723363
0000f0 72 bc c5 bd 74 45 c2 3b b5 48 c1 bd d7 df d3 3d
       -0.09655084 0.0059286896 -0.09437696 0.103454284

fc.5.weight f4 [10, 64]
000000 17 bd 22 3e 0d b8 c2 bd 25 1f 3a bd f6 df 53 be
       0.15892445 -0.09507761 -0.045439858 -0.20690903
000010 f7 c7 28 be 8c 2e 95 be 79 11 1f 3e e6 0f 34 be
       -0.1648253 -0.29137075 0.15534009 -0.1758419
000020 c6 70 cd bd 25 16 dd bc 45 f8 33 bc e5 ba f9 3d
       -0.100312755 -0.026988098 -0.010984485 0.121938504
000030 41 ba 27 3e 82 05 16 3e 43 4b 96 bd 78 e0 66 3d
       0.16379644 0.14650539 -0.07338574 0.056366414
000040 df eb aa 3d 60 13 d0 3d e3 d1 18 3e b3 9a de bd
       0.0834577 0.101599455 0.14923815 -0.1086935
000050 8c d5 61 bc a1 a6 4c bd 9e 38 f7 bc 33 9d db 3d
       -0.013783824 -0.049963597 -0.030178364 0.10723343
000060 88 21 0c be b2 0e 5b 3e 98 b7 75 3d 9b 55 be 3e
       -0.13684666 0.21392325 0.05998954 0.37174687
000070 6a 40 68 bd 7d 50 b0 bd ba 5d 58 bb b0 c3 e9 bd
       -0.056702055 -0.08609102 -0.003301485 -0.114142776
000080 cd 64 ba be cd 29 60 3e d5 40 ce be fc ba 76 be
       -0.3640503 0.21890946 -0.40283838 -0.24094766
000090 10 49 8f 3c b1 0b 37 be d7 e2 8c 3d 0e e7 16 3c
       0.017490894 -0.17875554 0.06879204 0.009210361
0000a0 92 c3 df bd 67 8f a5 bc c5 f6 73 3e f8 7f 28 bd
       -0.10925974 -0.020209981 0.23824604 -0.041137666
0000b0 fc 28 b4 3d cc 74 95 3d 47 10 6d bc f7 d1 04 bf
       0.0879688 0.07297668 -0.014469213 -0.5188288
0000c0 9e 55 3b bc 64 f4 6b be 3a 12 bf be 80 89 ce be
       -0.011433987 -0.23042446 -0.37318593 -0.4033928
0000d0 e0 28 5e be 02 b3 68 3d 8b 47 2a 3e d0 b7 b4 bd
       -0.2169528 0.05681134 0.16628854 -0.08824122
0000e0 00 8d 8c bb f7 26 65 3c d8 a2 df 3d b9 a4 06 bd
       -0.0042892694 0.013986341 0.10919732 -0.032871936
0000f0 28 e9 a9 be 49 11 85 bd 94 9f 29 bd fb c8 80 3c
       -0.33185697 -0.064974375 -0.04141195 0.015720835
000100 10 4e 74 3d 10 ec 17 be 62 11 4b 3c 79 9e ae be
       0.05964476 -0.14836144 0.012394281 -0.3410528
000110 19 63 1b 3e 97 96 a6 bd de 2d bd be 96 c3 c5 3c
       0.15174522 -0.081341915 -0.36949056 0.024141114
000120 f1 bf c6 be 62 83 f9 3c c4 3e b3 be 50 27 8f 3d
       -0.38818315 0.030458156 -0.35008824 0.0698992
000130 24 2c 1a 3c 3e 71 e8 3d 6f 1e be bc 6b 7a c6 3d
       0.009409938 0.11349724 -0.023207871 0.09691318
000140 e2 61 2b bd 54 f9 1b 3e a6 51 bd 3d 79 44 8e 3d
       -0.041841395 0.1523183 0.09244089 0.06946654
000150 fa 54 a7 bd bd 97 b6 bd e7 3d 76 bd 04 19 c8 be
       -0.08170505 -0.089156605 -0.06011763 -0.39081585
000160 ed 68 9e 3d 85 71 cb bc 46 34 28 be 3d 4d 8f be
       0.07734857 -0.024834404 -0.1642619 -0.27988616
000170 b8 b0 c6 bd 51 b5 0c 3e 36 6a c7 3d 44 83 1c bc
       -0.09701675 0.13741042 0.09737055 -0.009552781
000180 ad 29 80 bd 48 d5 cd 3e e9 e7 91 be 5e c7 47 3e
       -0.06257949 0.40201783 -0.28497246 0.19509646
000190 bd f2 0e bc d1 5f e2 3d ae 7c 99 be 46 11 33 3e
       -0.0087248655 0.11053432 -0.29977936 0.17487058
0001a0 80 9d 0b be 78 49 ad bd 6b 01 d6 bd 6b 69 19 be
       -0.136343 -0.08461279 -0.10449489 -0.1498162
0001b0 9b 0c 41 be 16 f2 10 be a6 5c dd 3c d0 1e 4a 3e
       -0.18852465 -0.14154848 0.027021717 0.19738317
0001c0 4f e0 b2 bd c3 16 26 3e bc 36 40 bd 30 87 e7 3d
       -0.0873419 0.1621962 -0.0469272 0.11305082
0001d0 53 1e 0e 3e d1 8f 2f bd b3 4a 0c be 7c 52 bc bd
       0.13878755 -0.042861763 -0.1370037 -0.0919542
0001e0 96 f9 3e 3d 36 91 50 3d e4 a9 ac be 0b 0c 3c 3d
       0.046624742 0.050919734 -0.33723366 0.045909923
0001f0 a9 9f 1f 3e 56 7c 74 bc 16 ac b0 bc 04 be cb be
       0.1558825 -0.014922222 -0.021566432 -0.39793408
000200 c8 31 35 bb ee d1 d9 be 3d f0 3b bd 29 1e 9a bc
       -0.002764808 -0.42542976 -0.045883406 -0.01881321
000210 52 0a 1b 3d c6 8b 06 3e 40 fc d4 3c 7f 06 8f be
       0.03785164 0.13139257 0.025999188 -0.27934644
000220 04 d4 0f bc c4 5c 30 3d 7c 81 8c 3e 7e 99 b1 3d
       -0.008778576 0.04305722 0.2744254 0.086718544
000230 bf be 08 be 17 36 fe bd 6d 62 26 3e e0 1b 1e 3e
       -0.13354014 -0.124126606 0.16248484 0.15440321
000240 c8 fb 6a 3d 3a c7 71 3d 0a 15 4f 3c ec b8 12 3e
       0.057369024 0.059027888 0.012639293 0.14328355
000250 15 26 52 be d0 23 10 3e 85 b5 19 bd c5 43 fe 3d
       -0.2052234 0.14076161 -0.037526626 0.1241527
000260 49 a1 bf be 79 df 55 3e 3e aa 8e be 5a 6d 05 be
       -0.37427738 0.2088603 -0.2786426 -0.13029996
000270 94 42 07 bd 14 d6 0e bd 8a 15 17 3e 8a 35 3d bd
       -0.03302248 -0.03487213 0.1475431 -0.046193637
000280 e4 fe 27 be fc 2b a8 be 73 6d 2b be 2b 02 2a 3e
       -0.16405827 -0.32846057 -0.1674097 0.1660239
000290 79 79 81 3d b0 77 ed bd ee c8 78 3d 0c 6b b8 be
       0.06321997 -0.11595094 0.060738496 -0.3601917
0002a0 9d 55 d0 bd 42 f4 c1 bc 24 dd 13 39 a3 17 5f 3b
       -0.101725794 -0.023676042 0.00014101394 0.0034041188
0002b0 a2 41 21 3c 66 fa 9a bd 79 6a 7a 3d fb 86 84 be
       0.009842308 -0.07567291 0.061136696 -0.25884232
0002c0 f1 27 56 3b 61 7e e5 bd f7 cc 20 be b4 b9 21 3e
       0.0032677616 -0.112057455 -0.15703188 0.15793496
0002d0 83 33 f0 3b 6d 25 64 bd 02 9c 3d bc 66 48 54 3c
       0.0073303594 -0.055699755 -0.01157284 0.012956714
0002e0 5c ec 42 bd 7b 31 09 3e da 31 e1 bc 96 6d b1 3c
       -0.04758869 0.13397782 -0.027489591 0.0216587
0002f0 c7 98 97 3e 6d d8 9a 3d 48 96 03 3d f0 36 0d be
       0.29608747 0.07560811 0.03212574 -0.13790488
000300 86 7c 56 bd 76 26 40 3d b6 23 17 bd 52 36 21 3e
       -0.05236485 0.04691168 -0.03689929 0.15743378
000310 ca 17 8d 3d 42 17 74 3d b9 57 83 3d 79 4a 36 3e
       0.06889303 0.059592493 0.06413216 0.17801847
000320 87 5a 9a be 41 1e 21 be 57 37 2a be c2 f0 9a 3d
       -0.30147192 -0.15734197 -0.16622673 0.07565452
000330 67 5c 12 3e d0 7c 47 3c b7 80 e2 3d 9f 24 f9 bd
       0.14293061 0.012175754 0.11059707 -0.12165188
000340 7b 4e 92 3d b1 fe 93 3d 20 d2 4b be 49 51 1b be
       0.07143875 0.07226313 -0.19904375 -0.15167727
000350 75 26 be 3d b8 5e 39 3c 58 4c 98 bc e4 6b ff 3d
       0.09284679 0.011314087 -0.018591091 0.124717504
000360 57 31 8e be 6e 47 9e 3d f1 5c ca 3d 0b 7d eb bd
       -0.27772018 0.07728468 0.098810084 -0.114984594
000370 d7 32 94 bd 67 db c7 be 12 35 67 bd 29 13 81 3b
       -0.072362594 -0.39034578 -0.056447096 0.0039390516
000380 77 ad 82 bd 6a 5b 0d 3e e8 bd 4a 3e 99 55 f6 3d
       -0.06380742 0.13804403 0.19799006 0.12028045
000390 8a 41 0d 3e a4 19 3b bd a5 49 1c be c3 77 a8 bd
       0.13794532 -0.04567875 -0.15262468 -0.08225968
0003a0 1f 08 2f bd 3c 01 5c 3d 22 48 71 be a0 3c b7 3d
       -0.042732354 0.053712115 -0.23562673 0.0894711
0003b0 0b 64 fc 3d 17 58 fb 3d 49 f7 1d bd 7c e3 17 bc
       0.12323769 0.12272661 -0.038565908 -0.009270545
0003c0 25 8c fe 3d 5b c1 cf bb bd 3d db bd ee 04 35 3e
       0.12429074 -0.0063401884 -0.10705135 0.17677662
0003d0 16 9c 71 3c 92 b7 1b bd 24 cf b5 be 41 ad e7 3d
       0.014746686 -0.038016863 -0.35509598 0.113123424
0003e0 df 5d e9 3d b7 56 f4 3d 8b ef 94 3d 0f 3d a5 3d
       0.113948576 0.11930602 0.07272252 0.08068287
0003f0 60 be 17 be 2c df b2 3b 63 ae b5 bc cf 8b 7a be
       -0.14818716 0.005458733 -0.02217788 -0.24467395

fc.5.bias f4 [10]
000000 bc b9 fd bd ef ee 35 be 10 83 1a 3c 7e 22 38 bd
       -0.12388942 -0.17766927 0.009430662 -0.04495477
000010 eb a3 7b 3d 5a 4a de bd fd 97 b7 3d e6 68 93 bd
       0.06143562 -0.10854025 0.08964536 -0.07197742
000020 d2 d1 a3 3d 9c 14 b1 3d
       0.079990044 0.08646509
