onnx/2_model_qcdq_transformed.onnx (onnx, 8240 bytes, 2 tensors)

/weight_quant/export_handler/Constant_1_output_0 i1 [32, 16]
5 6 -2 6 -2 1 -3 4
6 -5 6 1 5 1 3 -1
5 1 -3 2 -3 -1 -3 5
-6 -3 -2 -4 1 -7 6 -6
5 1 -2 4 1 6 1 -2
2 -2 3 6 4 -3 4 1
4 -4 -7 -3 -5 6 2 3
2 0 5 -5 0 -5 2 -2
2 -1 6 -4 -4 -4 6 2
7 -6 -7 -5 -5 3 3 6
-4 -5 4 -3 4 -2 4 -5
-4 2 1 -2 4 5 -5 -4
6 -2 -2 -7 -4 2 -1 -5
0 -5 -6 -4 -6 -4 7 1
2 -7 -5 -2 1 -6 -3 -4
0 -3 0 -5 -5 -4 -2 -6
6 -1 6 2 -6 5 -2 -3
-6 -7 2 -2 3 -6 5 -5
-1 1 4 6 6 -6 2 -3
-1 -5 6 -5 4 2 2 -4
6 2 1 -6 3 -1 -3 6
2 -4 -4 0 4 -2 -4 -2
-5 2 5 -7 2 4 1 -2
4 4 3 -1 -2 1 -1 -2
4 6 -1 -2 0 0 2 2
-6 -3 6 3 0 -4 -4 -6
-2 2 4 3 -6 -4 -1 7
1 -2 3 -3 -5 5 -3 -1
-7 5 5 3 -5 -7 -6 5
3 6 4 2 0 -5 -6 -7
3 -3 -1 -4 -1 -5 -5 2
-2 4 -2 -5 -1 -3 -2 -7
00000000: 0506 fe06 fe01 fd04 06fb 0601 0501 03ff
00000010: 0501 fd02 fdff fd05 fafd fefc 01f9 06fa
00000020: 0501 fe04 0106 01fe 02fe 0306 04fd 0401
00000030: 04fc f9fd fb06 0203 0200 05fb 00fb 02fe
00000040: 02ff 06fc fcfc 0602 07fa f9fb fb03 0306
00000050: fcfb 04fd 04fe 04fb fc02 01fe 0405 fbfc
00000060: 06fe fef9 fc02 fffb 00fb fafc fafc 0701
00000070: 02f9 fbfe 01fa fdfc 00fd 00fb fbfc fefa
00000080: 06ff 0602 fa05 fefd faf9 02fe 03fa 05fb
00000090: ff01 0406 06fa 02fd fffb 06fb 0402 02fc
000000a0: 0602 01fa 03ff fd06 02fc fc00 04fe fcfe
000000b0: fb02 05f9 0204 01fe 0404 03ff fe01 fffe
000000c0: 0406 fffe 0000 0202 fafd 0603 00fc fcfa
000000d0: fe02 0403 fafc ff07 01fe 03fd fb05 fdff
000000e0: f905 0503 fbf9 fa05 0306 0402 00fb faf9
000000f0: 03fd fffc fffb fb02 fe04 fefb fffd fef9

/weight_quant/export_handler_1/Constant_1_output_0 i1 [1, 32]
7 1 4 5 6 -2 -2 3
-2 3 -2 -5 3 1 3 7
5 7 0 -6 -5 -4 -6 -4
-6 -7 -4 -7 -4 3 6 -2
00000000: 0701 0405 06fe fe03 fe03 fefb 0301 0307
00000010: 0507 00fa fbfc fafc faf9 fcf9 fc03 06fe
