onnx/3_model_splitted_quant.onnx (onnx, 25353 bytes, 3 tensors)

linear1.weight f4 [32, 16]
0.19113463 0.20750198 -0.05856812 0.22965282 -0.054775894 0.050447673 -0.12171376 0.14682066
0.22038573 -0.18340704 0.21729904 0.046789825 0.18470222 0.033857644 0.12054703 -0.03529775
0.19272146 0.036952227 -0.11670998 0.06372458 -0.11518416 -0.029318213 -0.10153958 0.16584274
-0.19734254 -0.115252584 -0.070593685 -0.15031812 0.02359578 -0.24691978 0.22577727 -0.21236706
0.19300684 0.041604787 -0.08117613 0.15448749 0.038962692 0.20199084 0.027329922 -0.078843296
0.06717092 -0.06779486 0.10521439 0.22320554 0.14451489 -0.10929313 0.14431617 0.044731557
0.12695876 -0.15237626 -0.24747711 -0.09659013 -0.19175571 0.20513472 0.072007835 0.103553385
0.07906529 -0.0043489933 0.19565207 -0.1776284 0.015740931 -0.17063504 0.077088 -0.08609557
0.07660407 -0.05208537 0.20734796 -0.14817548 -0.1490995 -0.1491085 0.2248607 0.08331278
0.24056268 -0.20631906 -0.24796903 -0.19559094 -0.16817227 0.101260036 0.089518964 0.2077311
-0.12910634 -0.17042795 0.13264453 -0.10105112 0.15173095 -0.05932516 0.14301148 -0.194242
-0.12616244 0.07621911 0.052851886 -0.06373969 0.14901736 0.1699523 -0.18129334 -0.13346705
0.22891548 -0.084358126 -0.0886291 -0.24189866 -0.14316756 0.062450916 -0.032998294 -0.1814715
0.005864173 -0.17077038 -0.21209916 -0.13766566 -0.21880302 -0.15918452 0.24990222 0.04721874
0.07703993 -0.23317108 -0.16419345 -0.083213955 0.03909278 -0.21998033 -0.10771826 -0.14966714
0.0006928146 -0.0930258 -0.017323941 -0.16940743 -0.17159879 -0.14585045 -0.08557436 -0.19732022
0.20961747 -0.04961601 0.21509919 0.07789552 -0.21169925 0.1730088 -0.068786204 -0.09583151
-0.20751762 -0.24854016 0.07152766 -0.054610968 0.09733078 -0.20516586 0.18560728 -0.18351343
-0.043168336 0.052217424 0.12906295 0.20182759 0.22773981 -0.19823053 0.062916815 -0.10753149
-0.027396202 -0.18712252 0.22771466 -0.18348762 0.13361281 0.0878599 0.081238985 -0.13516155
0.22723788 0.0549376 0.032160014 -0.2203137 0.10494712 -0.03750515 -0.11453107 0.21473664
0.055737197 -0.1383191 -0.12653473 -0.01193893 0.13959032 -0.06388345 -0.14264372 -0.08561072
-0.18676871 0.08915812 0.19351006 -0.23536009 0.058062673 0.12914795 0.045332342 -0.08903116
0.13048553 0.1313783 0.09348181 -0.04393035 -0.066200316 0.02674523 -0.044163525 -0.07450026
0.15980172 0.21484989 -0.024749339 -0.055974215 0.0036480725 -0.014927059 0.06010282 0.070058405
-0.22706419 -0.09225944 0.21053237 0.097388744 -0.012434393 -0.15072644 -0.15295127 -0.22394171
-0.081490606 0.084426045 0.15940541 0.115424335 -0.22098601 -0.15034062 -0.039454162 0.24183738
0.036164373 -0.064742684 0.10342881 -0.09522039 -0.16181391 0.18247181 -0.113675445 -0.050116688
-0.24870107 0.16731766 0.18940866 0.09111205 -0.17431855 -0.24673498 -0.20304474 0.18642506
0.12002644 0.21037611 0.13096747 0.06327304 -0.0024481714 -0.19012651 -0.21419305 -0.23383716
0.10234049 -0.122742 -0.050313145 -0.14387631 -0.04555589 -0.17595872 -0.16335392 0.082927704
-0.0742991 0.1543358 -0.08020219 -0.18339181 -0.044109732 -0.12118685 -0.076485395 -0.2379989
00000000: ccb8 433e 667b 543e 20e5 6fbd 1c2a 6b3e
00000010: b05c 60bd 38a2 4e3d 1045 f9bd 2858 163e
00000020: ccac 613e 0ecf 3bbe a483 5e3e b0a6 3f3d
00000030: 9422 3d3e 50ae 0a3d 5ce1 f63d 6094 10bd
00000040: c658 453e 385b 173d a405 efbd 0882 823d
00000050: ace5 ebbd c02c f0bc fcf3 cfbd aed2 293e
00000060: 2a14 4abe 8c09 ecbd 6c93 90bd feec 19be
00000070: f04b c13c 8ad8 7cbe 2832 673e c076 59be
00000080: 96a3 453e c869 2a3d ac3f a6bd f831 1e3e
00000090: 5897 1f3d b0d6 4e3e 00e3 df3c 9878 a1bd
000000a0: e890 893d 08d8 8abd a47a d73d fe8f 643e
000000b0: b6fb 133e 14d5 dfbd 9ec7 133e 7038 373d
000000c0: 7a01 023e 8608 1cbe a46a 7dbe 0cd1 c5bd
000000d0: 9c5b 44be d60e 523e d878 933d cc13 d43d
000000e0: fcec a13d 0082 8ebb 0459 483e 38e4 35be
000000f0: 20f3 803c f4ba 2ebe 50e0 9d3d e052 b0bd
00000100: 98e2 9c3d 7857 55bd 0653 543e 50bb 17be
00000110: 8aad 18be e6af 18be e241 663e e49f aa3d
00000120: 1056 763e 4e45 53be 98eb 7dbe fe48 48be
00000130: 5a35 2cbe 6c61 cf3d b855 b73d 76b7 543e
00000140: 7434 04be aa84 2ebe f8d3 073e e4f3 cebd
00000150: 5c5f 1b3e f0fe 72bd 9a71 123e 60e7 46be
00000160: ba30 01be c418 9c3d 387b 583d f489 82bd
00000170: 0298 183e fa07 2e3e f6a4 39be 96ab 08be
00000180: d268 6a3e f4c3 acbd 2c83 b5bd 48b4 77be
00000190: 849a 12be 88cc 7f3d 3829 07bd aad3 39be
000001a0: 4028 c03b 6ede 2ebe 8630 59be 3af8 0cbe
000001b0: e60d 60be 4401 23be 5ee6 7f3e 7068 413d
000001c0: 1cc7 9d3d 66c4 6ebe 5422 28be 146c aabd
000001d0: c01f 203d 8642 61be 649b dcbd 5842 19be
000001e0: 009e 353a 5084 bebd f0ea 8dbc 2479 2dbe
000001f0: 98b7 2fbe d259 15be 9c41 afbd 500e 4abe
00000200: f6a5 563e 283a 4bbd f642 5c3e b087 9f3d
00000210: b0c7 58be 3829 313e c8df 8cbd 5043 c4bd
00000220: 807f 54be 5081 7ebe 187d 923d c0af 5fbd
00000230: 5c55 c73d 0017 52be d60f 3e3e f2ea 3bbe
00000240: 48d1 30bd f0e1 553d 1429 043e e4ab 4e3e
00000250: a034 693e f2fc 4abe 88da 803d 7839 dcbd
00000260: 006e e0bc 0c9d 3fbe 082e 693e 2ee4 3bbe
00000270: ccd1 083e e4ef b33d a060 a63d ca67 0abe
00000280: 0cb1 683e 4006 613d 38ba 033d ea99 61be
00000290: 84ee d63d 009f 19bd 448f eabd ece3 5b3e
000002a0: b04c 643d 86a3 0dbe 5292 01be 809b 43bc
000002b0: c4f0 0e3e 54d5 82bd 3211 12be ac54 afbd
000002c0: 4c40 3fbe 8898 b63d 8027 463e 3c02 71be
000002d0: 20d3 6d3d 5c3f 043e 68ae 393d f855 b6bd
000002e0: 009e 053e 0888 063e 6473 bf3d 50f0 33bd
000002f0: 0894 87bd d018 db3c d0e4 34bd 9893 98bd
00000300: 10a3 233e 9c01 5c3e 20bf cabc 3845 65bd
00000310: 8014 6f3b a090 74bc 602e 763d c87a 8f3d
00000320: 8483 68be 84f2 bcbd cc95 573e c073 c73d
00000330: a0b9 4bbc 0858 1abe 429f 1cbe fa50 65be
00000340: 8ce4 a6bd 90e7 ac3d 2c3b 233e 9863 ec3d
00000350: 284a 62be e4f2 19be b09a 21bd 38a4 773e
00000360: 1821 143d d097 84bd 7cd2 d33d e802 c3bd
00000370: 8cb2 25be e4d9 3a3e acce e8bd 2847 4dbd
00000380: 7eab 7ebe 5255 2b3e 58f4 413e f498 ba3d
00000390: 9080 32be 18a8 7cbe f6ea 4fbe 36e6 3e3e
000003a0: 6cd0 f53d d66c 573e 561c 063e 4c95 813d
000003b0: 8071 20bb 86b0 42be 6c55 5bbe 0273 6fbe
000003c0: e497 d13d 2860 fbbd 2815 4ebd 5054 13be
000003d0: d098 3abd 862e 34be 4046 27be 00d6 a93d
000003e0: 202a 98bd 340a 1e3e 0c41 a4bd 10cb 3bbe
000003f0: 68ac 34bd d030 f8bd 60a4 9cbd fcb5 73be

linear1.bias f4 [32]
0.07781118 -0.19071802 -0.15818617 -0.20784563 0.21782991 -0.23673496 0.18859169 -0.008404225
-0.029074699 0.15636963 -0.023106903 0.15678853 0.18075374 -0.21705252 0.096195996 0.04719475
0.05375293 0.03649786 0.06838274 -0.120266706 -0.031985283 0.23753 0.16796237 -0.0093921125
-0.23513272 0.010956943 -0.17024338 0.20329788 -0.15177184 -0.018050402 -0.055485666 0.04448846
00000000: 785b 9f3d 964b 43be 8efb 21be 7cd5 54be
00000010: ce0e 5f3e a66a 72be 2e1e 413e e0b1 09bc
00000020: 102e eebc 5c1f 203e b04a bdbc 2c8d 203e
00000030: 8217 393e 0443 5ebe 6802 c53d 484f 413d
00000040: 082c 5c3d c87e 153d 400c 8c3d 644e f6bd
00000050: 0003 03bd 103b 733e 54fe 2b3e 60e1 19bc
00000060: a2c6 70be c084 333c 4854 2ebe 522d 503e
00000070: 146a 1bbe 70de 93bc f044 63bd 8839 363d

linear2.weight f4 [1, 32]
0.16635175 0.016797185 0.102382705 0.1372179 0.1427138 -0.061050087 -0.03953728 0.08519538
-0.048236653 0.08277817 -0.038619995 -0.119899206 0.07195577 0.027103052 0.078815594 0.17562519
0.120691285 0.16758098 0.009461582 -0.15206553 -0.12401366 -0.10980904 -0.15578417 -0.088608876
-0.16273493 -0.16309687 -0.10563372 -0.17427245 -0.10850774 0.06740649 0.1474411 -0.05258449
00000000: 1d58 2a3e 409a 893c 06ae d13d d982 0c3e
00000010: 9123 123e a80f 7abd d8f1 21bd ea7a ae3d
00000020: cc93 45bd 9a87 a93d 0030 1ebd b78d f5bd
00000030: 8c5d 933d 3807 de3c 126a a13d 17d7 333e
00000040: fe2c f73d 599a 2b3e c004 1b3c 11b7 1bbe
00000050: e0fa fdbd 90e3 e0bd e385 1fbe 9278 b5bd
00000060: fca3 26be de02 27be 7e56 d8bd 7a74 32be
00000070: 4e39 debd 6a0c 8a3d cdfa 163e d662 57bd
